func.func @vector_topk_test_32() {
  %input_values = util.unfoldable_constant dense<[[… > : tensor<1x32xf32>
  %out_values_empty = tensor.empty() : tensor<1x32xf32>
  %out_indices_empty = tensor.empty() : tensor<1x32xi32>
  %neg_inf = arith.constant 0xFF800000 : f32
  %c0 = arith.constant 0 : i32
  %out_values = linalg.fill ins(%neg_inf : f32) outs(%out_values_empty : tensor<1x32xf32>) -> tensor<1x32xf32>
  %out_indices = linalg.fill ins(%c0 : i32) outs(%out_indices_empty : tensor<1x32xi32>) -> tensor<1x32xi32>
  %0:2 = iree_linalg_ext.topk
        dimension(1)
        ins(%input_values: tensor<1x32xf32>)
        outs(%out_values, %out_indices : tensor<1x32xf32>, tensor<1x32xi32>) {
        ^bb0(%arg0 : f32, %arg1 : f32):
         %0 = arith.cmpf ogt, %arg0, %arg1 : f32
         iree_linalg_ext.yield %0 : i1
        } -> tensor<1x32xf32>, tensor<1x32xi32>

  check.expect_almost_eq_const(
      %0#0,
      dense<[[… > : tensor<1x32xf32>
  ) : tensor<1x32xf32>

  check.expect_eq_const(
      %0#1,
      dense<[[15, 19, 23, 3, 7, 11, 27, 31, 2, 6, 10, 14, 18, 22, 26, 30, 1, 5, 9, 13, 17, 21, 25, 29, 8, 0, 4, 12, 16, 20, 24, 28]]> : tensor<1x32xi32>
  ) : tensor<1x32xi32>

  return
}

func.func @vector_topk_test_32_int() {
  %input_values = util.unfoldable_constant dense<[[1, 2, 3, 7, 1, 2, 3, 4, 1, 2, 3, 4,
    1, 2, 3, 4, 1, 2, 3, 5, 1, 2, 3, 4, 1, 2, 3, 4, 1, 2, 3, 4]]> : tensor<1x32xi32>
  %out_values_empty = tensor.empty() : tensor<1x32xi32>
  %out_indices_empty = tensor.empty() : tensor<1x32xi32>
  %neg_1 = arith.constant 0xFFFFFFFF : i32
  %c0 = arith.constant 0 : i32
  %out_values = linalg.fill ins(%neg_1 : i32) outs(%out_values_empty : tensor<1x32xi32>) -> tensor<1x32xi32>
  %out_indices = linalg.fill ins(%c0 : i32) outs(%out_indices_empty : tensor<1x32xi32>) -> tensor<1x32xi32>
  %0:2 = iree_linalg_ext.topk
        dimension(1)
        ins(%input_values: tensor<1x32xi32>)
        outs(%out_values, %out_indices : tensor<1x32xi32>, tensor<1x32xi32>) {
        ^bb0(%arg0 : i32, %arg1 : i32):
         %0 = arith.cmpi eq, %arg0, %arg1 : i32
         iree_linalg_ext.yield %0 : i1
        } -> tensor<1x32xi32>, tensor<1x32xi32>

  check.expect_eq_const(
      %0#0,
      dense<[[7, 5, 4, 4, 4, 4, 4, 4, 3, 3, 3, 3, 3, 3, 3, 3, 2, 2, 2, 2, 2, 2, 2, 2, 1, 1, 1, 1, 1, 1, 1, 1]]> : tensor<1x32xi32>
  ) : tensor<1x32xi32>

  check.expect_eq_const(
      %0#1,
      dense<[[3, 19, 7, 11, 15, 23, 27, 31, 2, 6, 10, 14, 18, 22, 26, 30, 1, 5, 9, 13, 17, 21, 25, 29, 0, 4, 8, 12, 16, 20, 24, 28]]> : tensor<1x32xi32>
  ) : tensor<1x32xi32>

  return
}

func.func @vector_topk_test_4x1024_int() {
  %input_values = util.unfoldable_constant dense<[[1, 2, 3, 7, 1, 2, 3, 4, 1, 2, 3, 4,
    1, 2, 3, 4, 1, 2, 3, 5, 1, 2, 3, 4, 1, 2, 3, 4, 1, 2, 3, 4,
    1, 2, 3, 7, 1, 2, 3, 4, 1, 2, 3, 4,
    1, 2, 3, 4, 1, 2, 3, 5, 1, 2, 3, 4, 1, 2, 3, 4, 1, 2, 3, 4,
    1, 2, 3, 7, 1, 2, 3, 4, 1, 2, 3, 4,
    1, 2, 3, 4, 1, 2, 3, 5, 1, 2, 3, 4, 1, 2, 3, 4, 1, 2, 3, 4,
    1, 2, 3, 7, 1, 2, 3, 4, 1, 2, 3, 4,
    1, 2, 3, 4, 1, 2, 3, 5, 1, 2, 3, 4, 1, 2, 3, 4, 1, 2, 3, 4,
    1, 2, 3, 7, 1, 2, 3, 4, 1, 2, 3, 4,
    1, 2, 3, 4, 1, 2, 3, 5, 1, 2, 3, 4, 1, 2, 3, 4, 1, 2, 3, 4,
    1, 2, 3, 7, 1, 2, 3, 4, 1, 2, 3, 4,
    1, 2, 3, 4, 1, 2, 3, 5, 1, 2, 3, 4, 1, 2, 3, 4, 1, 2, 3, 4,
    1, 2, 3, 7, 1, 2, 3, 4, 1, 2, 3, 4,
    1, 2, 3, 4, 1, 2, 3, 5, 1, 2, 3, 4, 1, 2, 3, 4, 1, 2, 3, 4,
    1, 2, 3, 7, 1, 2, 3, 4, 1, 2, 3, 4,
    1, 2, 3, 4, 1, 2, 3, 5, 1, 2, 3, 4, 1, 2, 3, 4, 1, 2, 3, 4,
    1, 2, 3, 7, 1, 2, 3, 4, 1, 2, 3, 4,
    1, 2, 3, 4, 1, 2, 3, 5, 1, 2, 3, 4, 1, 2, 3, 4, 1, 2, 3, 4,
    1, 2, 3, 7, 1, 2, 3, 4, 1, 2, 3, 4,
    1, 2, 3, 4, 1, 2, 3, 5, 1, 2, 3, 4, 1, 2, 3, 4, 1, 2, 3, 4,
    1, 2, 3, 7, 1, 2, 3, 4, 1, 2, 3, 4,
    1, 2, 3, 4, 1, 2, 3, 5, 1, 2, 3, 4, 1, 2, 3, 4, 1, 2, 3, 4,
    1, 2, 3, 7, 1, 2, 3, 4, 1, 2, 3, 4,
    1, 2, 3, 4, 1, 2, 3, 5, 1, 2, 3, 4, 1, 2, 3, 4, 1, 2, 3, 4,
    1, 2, 3, 7, 1, 2, 3, 4, 1, 2, 3, 4,
    1, 2, 3, 4, 1, 2, 3, 5, 1, 2, 3, 4, 1, 2, 3, 4, 1, 2, 3, 4,
    1, 2, 3, 7, 1, 2, 3, 4, 1, 2, 3, 4,
    1, 2, 3, 4, 1, 2, 3, 5, 1, 2, 3, 4, 1, 2, 3, 4, 1, 2, 3, 4,
    1, 2, 3, 7, 1, 2, 3, 4, 1, 2, 3, 4,
    1, 2, 3, 4, 1, 2, 3, 5, 1, 2, 3, 4, 1, 2, 3, 4, 1, 2, 3, 4,
    1, 2, 3, 7, 1, 2, 3, 4, 1, 2, 3, 4,
    1, 2, 3, 4, 1, 2, 3, 5, 1, 2, 3, 4, 1, 2, 3, 4, 1, 2, 3, 4,
    1, 2, 3, 7, 1, 2, 3, 4, 1, 2, 3, 4,
    1, 2, 3, 4, 1, 2, 3, 5, 1, 2, 3, 4, 1, 2, 3, 4, 1, 2, 3, 4,
    1, 2, 3, 7, 1, 2, 3, 4, 1, 2, 3, 4,
    1, 2, 3, 4, 1, 2, 3, 5, 1, 2, 3, 4, 1, 2, 3, 4, 1, 2, 3, 4,
    1, 2, 3, 7, 1, 2, 3, 4, 1, 2, 3, 4,
    1, 2, 3, 4, 1, 2, 3, 5, 1, 2, 3, 4, 1, 2, 3, 4, 1, 2, 3, 4,
    1, 2, 3, 7, 1, 2, 3, 4, 1, 2, 3, 4,
    1, 2, 3, 4, 1, 2, 3, 5, 1, 2, 3, 4, 1, 2, 3, 4, 1, 2, 3, 4,
    1, 2, 3, 7, 1, 2, 3, 4, 1, 2, 3, 4,
    1, 2, 3, 4, 1, 2, 3, 5, 1, 2, 3, 4, 1, 2, 3, 4, 1, 2, 3, 4,
    1, 2, 3, 7, 1, 2, 3, 4, 1, 2, 3, 4,
    1, 2, 3, 4, 1, 2, 3, 5, 1, 2, 3, 4, 1, 2, 3, 4, 1, 2, 3, 4,
    1, 2, 3, 7, 1, 2, 3, 4, 1, 2, 3, 4,
    1, 2, 3, 4, 1, 2, 3, 5, 1, 2, 3, 4, 1, 2, 3, 4, 1, 2, 3, 4,
    1, 2, 3, 7, 1, 2, 3, 4, 1, 2, 3, 4,
    1, 2, 3, 4, 1, 2, 3, 5, 1, 2, 3, 4, 1, 2, 3, 4, 1, 2, 3, 4,
    1, 2, 3, 7, 1, 2, 3, 4, 1, 2, 3, 4,
    1, 2, 3, 4, 1, 2, 3, 5, 1, 2, 3, 4, 1, 2, 3, 4, 1, 2, 3, 4,
    1, 2, 3, 7, 1, 2, 3, 4, 1, 2, 3, 4,
    1, 2, 3, 4, 1, 2, 3, 5, 1, 2, 3, 4, 1, 2, 3, 4, 1, 2, 3, 4,
    1, 2, 3, 7, 1, 2, 3, 4, 1, 2, 3, 4,
    1, 2, 3, 4, 1, 2, 3, 5, 1, 2, 3, 4, 1, 2, 3, 4, 1, 2, 3, 4,
    1, 2, 3, 7, 1, 2, 3, 4, 1, 2, 3, 4,
    1, 2, 3, 4, 1, 2, 3, 5, 1, 2, 3, 4, 1, 2, 3, 4, 1, 2, 3, 4,
    1, 2, 3, 7, 1, 2, 3, 4, 1, 2, 3, 4,
    1, 2, 3, 4, 1, 2, 3, 5, 1, 2, 3, 4, 1, 2, 3, 4, 1, 2, 3, 4,
    1, 2, 3, 7, 1, 2, 3, 4, 1, 2, 3, 4,
    1, 2, 3, 4, 1, 2, 3, 5, 1, 2, 3, 4, 1, 2, 3, 4, 1, 2, 3, 4,
    1, 2, 3, 7, 1, 2, 3, 4, 1, 2, 3, 4,
    1, 2, 3, 4, 1, 2, 3, 5, 1, 2, 3, 4, 1, 2, 3, 4, 18, 2, 3, 4,
    1, 2, 3, 7, 1, 2, 3, 4, 1, 2, 3, 4,
    1, 2, 3, 4, 1, 2, 3, 5, 1, 2, 3, 4, 1, 2, 3, 4, 1, 2, 3, 4],
    [1, 2, 3, 7, 1, 2, 3, 4, 1, 2, 3, 4,
    1, 2, 3, 4, 1, 2, 3, 5, 1, 2, 3, 4, 1, 2, 3, 4, 1, 2, 3, 4,
    1, 2, 3, 7, 1, 2, 3, 4, 1, 2, 3, 4,
    1, 2, 3, 4, 1, 2, 3, 5, 1, 2, 3, 4, 1, 2, 3, 4, 1, 2, 3, 4,
    1, 2, 3, 7, 1, 2, 3, 4, 1, 2, 3, 4,
    1, 2, 3, 4, 1, 2, 3, 5, 1, 2, 3, 4, 1, 2, 3, 4, 1, 2, 3, 4,
    1, 2, 3, 7, 1, 2, 3, 4, 1, 2, 3, 4,
    1, 2, 3, 4, 1, 2, 3, 5, 1, 2, 3, 4, 1, 2, 3, 4, 1, 2, 3, 4,
    1, 2, 3, 7, 1, 2, 3, 4, 1, 2, 3, 4,
    1, 2, 3, 4, 1, 2, 3, 5, 1, 2, 3, 4, 1, 2, 3, 4, 1, 2, 3, 4,
    1, 2, 3, 7, 1, 2, 3, 4, 1, 2, 3, 4,
    1, 2, 3, 4, 1, 2, 3, 5, 1, 2, 3, 4, 1, 2, 3, 4, 1, 2, 3, 4,
    1, 2, 3, 7, 1, 2, 3, 4, 1, 2, 3, 4,
    1, 2, 3, 4, 1, 2, 3, 5, 1, 2, 3, 4, 1, 2, 3, 4, 1, 2, 3, 4,
    1, 2, 3, 7, 1, 2, 3, 4, 1, 2, 3, 4,
    1, 2, 3, 4, 1, 2, 3, 5, 1, 2, 3, 4, 1, 2, 3, 4, 1, 2, 3, 4,
    1, 2, 3, 7, 1, 2, 3, 4, 1, 2, 3, 4,
    1, 2, 3, 4, 1, 2, 3, 5, 1, 2, 3, 4, 1, 2, 3, 4, 1, 2, 3, 4,
    1, 2, 3, 7, 1, 2, 3, 4, 1, 2, 3, 4,
    1, 2, 3, 4, 1, 2, 3, 5, 1, 2, 3, 4, 1, 2, 3, 4, 1, 2, 3, 4,
    1, 2, 3, 7, 1, 2, 3, 4, 1, 2, 3, 4,
    1, 2, 3, 4, 1, 2, 3, 5, 1, 2, 3, 4, 1, 2, 3, 4, 1, 2, 3, 4,
    1, 2, 3, 7, 1, 2, 3, 4, 1, 2, 3, 4,
    1, 2, 3, 4, 1, 2, 3, 5, 1, 2, 3, 4, 1, 2, 3, 4, 1, 2, 3, 4,
    1, 2, 3, 7, 1, 2, 3, 4, 1, 2, 3, 4,
    1, 2, 3, 4, 1, 2, 3, 5, 1, 2, 3, 4, 1, 2, 3, 4, 1, 2, 3, 4,
    1, 2, 3, 7, 1, 2, 3, 4, 1, 2, 3, 4,
    1, 2, 3, 4, 1, 2, 3, 5, 1, 2, 3, 4, 1, 2, 3, 4, 1, 2, 3, 4,
    1, 2, 3, 7, 1, 2, 3, 4, 1, 2, 3, 4,
    1, 2, 3, 4, 1, 2, 3, 5, 1, 2, 3, 4, 1, 2, 3, 4, 1, 2, 3, 4,
    1, 2, 3, 7, 1, 2, 3, 4, 1, 2, 3, 4,
    1, 2, 3, 4, 1, 2, 3, 5, 1, 2, 3, 4, 1, 2, 3, 4, 1, 2, 3, 4,
    1, 2, 3, 7, 1, 2, 3, 4, 1, 2, 3, 4,
    1, 2, 3, 4, 1, 2, 3, 5, 1, 2, 3, 4, 1, 2, 3, 4, 1, 2, 3, 4,
    1, 2, 3, 7, 1, 2, 3, 4, 1, 2, 3, 4,
    1, 2, 3, 4, 1, 2, 3, 5, 1, 2, 3, 4, 1, 2, 3, 4, 1, 2, 3, 4,
    1, 2, 3, 7, 1, 2, 3, 4, 1, 2, 3, 4,
    1, 2, 3, 4, 1, 2, 3, 5, 1, 2, 3, 4, 1, 2, 3, 4, 1, 2, 3, 4,
    1, 2, 3, 7, 1, 2, 3, 4, 1, 2, 3, 4,
    1, 2, 3, 4, 1, 2, 3, 5, 1, 2, 3, 4, 1, 2, 3, 4, 1, 2, 3, 4,
    1, 2, 3, 7, 1, 2, 3, 4, 1, 2, 3, 4,
    1, 2, 3, 4, 1, 2, 3, 5, 1, 2, 3, 4, 1, 2, 3, 4, 1, 2, 3, 4,
    1, 2, 3, 7, 1, 2, 3, 4, 1, 2, 3, 4,
    1, 2, 3, 4, 1, 2, 3, 5, 1, 2, 3, 4, 1, 2, 3, 4, 1, 2, 3, 4,
    1, 2, 3, 7, 1, 2, 3, 4, 1, 2, 3, 4,
    1, 2, 3, 4, 1, 2, 3, 5, 1, 2, 3, 4, 1, 2, 3, 4, 1, 2, 3, 4,
    1, 2, 3, 7, 1, 2, 3, 4, 1, 2, 3, 4,
    1, 2, 3, 4, 1, 2, 3, 5, 1, 2, 3, 4, 1, 2, 3, 4, 1, 2, 3, 4,
    1, 2, 3, 7, 1, 2, 3, 11, 1, 2, 3, 4,
    1, 2, 3, 4, 1, 2, 3, 5, 1, 2, 3, 4, 1, 2, 3, 4, 1, 2, 3, 4,
    1, 2, 3, 7, 1, 2, 3, 4, 1, 2, 3, 4,
    1, 2, 3, 4, 1, 2, 3, 5, 1, 2, 3, 4, 1, 2, 3, 4, 1, 2, 3, 4,
    1, 2, 3, 7, 1, 2, 3, 4, 1, 2, 3, 4,
    1, 2, 3, 4, 1, 2, 3, 5, 1, 2, 3, 4, 1, 2, 3, 4, 1, 2, 3, 4,
    1, 2, 3, 7, 1, 2, 3, 4, 1, 2, 3, 4,
    1, 2, 3, 4, 1, 2, 3, 5, 1, 2, 3, 4, 1, 2, 3, 4, 1, 2, 3, 4,
    1, 2, 3, 7, 1, 2, 3, 4, 1, 2, 3, 4,
    1, 2, 3, 4, 1, 2, 3, 5, 1, 2, 3, 4, 1, 2, 3, 4, 1, 2, 3, 4,
    1, 2, 3, 7, 1, 2, 3, 4, 1, 2, 3, 4,
    1, 2, 3, 4, 1, 2, 3, 5, 1, 2, 3, 4, 1, 2, 3, 4, 1, 2, 3, 4,
    1, 2, 3, 7, 1, 2, 3, 4, 1, 2, 3, 4,
    1, 2, 3, 4, 1, 2, 3, 5, 1, 2, 3, 4, 1, 2, 3, 4, 1, 2, 3, 4,
    1, 2, 3, 7, 1, 2, 3, 4, 1, 2, 3, 4,
    1, 2, 3, 4, 1, 2, 3, 5, 1, 2, 3, 4, 1, 2, 3, 4, 1, 2, 3, 4],
    [1, 2, 3, 7, 1, 2, 3, 4, 1, 2, 3, 4,
    1, 2, 3, 4, 1, 2, 3, 5, 1, 2, 3, 4, 1, 2, 3, 4, 1, 2, 3, 4,
    1, 2, 3, 7, 1, 2, 3, 4, 1, 2, 3, 4,
    1, 2, 3, 4, 1, 2, 3, 5, 1, 2, 3, 4, 1, 2, 3, 4, 1, 2, 3, 4,
    1, 2, 3, 7, 1, 2, 3, 4, 1, 2, 3, 4,
    1, 2, 3, 4, 1, 2, 3, 5, 1, 2, 3, 4, 1, 2, 3, 4, 1, 2, 3, 4,
    1, 2, 3, 7, 1, 2, 3, 4, 1, 2, 3, 4,
    1, 2, 3, 4, 1, 2, 3, 5, 1, 2, 3, 4, 1, 2, 3, 4, 1, 2, 3, 4,
    1, 2, 3, 7, 1, 2, 3, 4, 1, 2, 3, 4,
    1, 2, 3, 4, 1, 2, 3, 5, 1, 2, 3, 4, 1, 2, 3, 4, 1, 2, 3, 4,
    1, 2, 3, 7, 1, 2, 3, 4, 1, 2, 3, 4,
    1, 2, 3, 4, 1, 2, 3, 5, 1, 2, 3, 4, 1, 2, 3, 4, 1, 2, 3, 4,
    1, 2, 3, 7, 1, 2, 3, 4, 1, 2, 3, 4,
    1, 2, 3, 4, 1, 2, 3, 5, 1, 2, 3, 4, 1, 2, 3, 4, 1, 2, 3, 4,
    1, 2, 3, 7, 1, 2, 3, 4, 1, 2, 3, 4,
    1, 2, 3, 4, 1, 2, 3, 5, 1, 2, 3, 4, 1, 2, 3, 4, 1, 2, 3, 4,
    1, 2, 3, 7, 1, 2, 3, 4, 1, 2, 3, 4,
    1, 2, 3, 4, 1, 2, 3, 5, 1, 2, 3, 4, 1, 2, 3, 4, 1, 2, 3, 4,
    1, 2, 3, 7, 1, 2, 3, 4, 1, 2, 3, 4,
    1, 2, 3, 4, 1, 2, 3, 5, 1, 2, 3, 4, 1, 2, 3, 4, 1, 2, 3, 4,
    1, 2, 3, 7, 1, 2, 3, 4, 1, 2, 3, 4,
    1, 2, 3, 4, 1, 2, 3, 5, 1, 2, 3, 4, 1, 2, 3, 4, 1, 2, 3, 4,
    1, 2, 3, 7, 1, 2, 3, 4, 1, 2, 3, 4,
    1, 2, 3, 4, 1, 2, 3, 5, 1, 2, 3, 4, 1, 2, 3, 4, 1, 2, 3, 4,
    1, 2, 3, 7, 1, 2, 3, 4, 1, 2, 3, 4,
    1, 2, 3, 4, 1, 2, 3, 5, 1, 2, 3, 4, 1, 2, 3, 4, 1, 2, 3, 4,
    1, 2, 3, 7, 1, 2, 3, 4, 1, 2, 3, 4,
    1, 2, 3, 4, 1, 2, 3, 5, 1, 2, 3, 4, 1, 2, 3, 4, 1, 2, 3, 4,
    1, 2, 3, 7, 1, 2, 3, 4, 1, 2, 3, 4,
    1, 2, 3, 4, 1, 2, 3, 5, 1, 2, 3, 4, 1, 2, 3, 4, 1, 2, 3, 4,
    1, 2, 3, 7, 1, 2, 3, 4, 1, 2, 3, 4,
    1, 2, 3, 4, 1, 2, 3, 5, 1, 2, 3, 4, 1, 2, 3, 4, 1, 2, 3, 4,
    1, 2, 3, 7, 1, 2, 3, 4, 1, 2, 3, 4,
    1, 2, 3, 4, 1, 2, 3, 5, 1, 2, 3, 4, 1, 2, 3, 4, 1, 2, 3, 4,
    1, 2, 3, 7, 1, 2, 3, 4, 1, 2, 3, 4,
    1, 2, 3, 4, 1, 2, 3, 5, 1, 2, 3, 4, 1, 2, 3, 4, 1, 2, 3, 4,
    1, 2, 3, 7, 1, 2, 3, 4, 1, 2, 3, 4,
    1, 2, 3, 4, 1, 2, 3, 5, 1, 2, 3, 4, 1, 2, 3, 4, 1, 2, 3, 4,
    1, 2, 3, 7, 1, 2, 3, 4, 1, 2, 3, 4,
    1, 2, 3, 4, 1, 2, 3, 5, 1, 2, 3, 4, 1, 2, 3, 4, 1, 2, 3, 4,
    1, 2, 3, 7, 1, 2, 3, 4, 1, 2, 3, 4,
    1, 2, 3, 4, 1, 2, 3, 5, 1, 2, 3, 4, 1, 2, 3, 4, 1, 2, 3, 4,
    1, 2, 3, 7, 1, 2, 3, 4, 1, 2, 3, 4,
    1, 2, 3, 4, 1, 2, 3, 5, 1, 2, 3, 4, 1, 2, 3, 4, 1, 2, 3, 4,
    1, 2, 3, 7, 1, 2, 3, 4, 1, 2, 3, 4,
    1, 2, 3, 4, 1, 2, 3, 5, 1, 2, 3, 4, 1, 2, 3, 4, 1, 2, 3, 4,
    1, 2, 3, 7, 1, 2, 3, 4, 1, 2, 3, 4,
    1, 2, 3, 4, 1, 2, 3, 5, 1, 2, 3, 4, 1, 2, 3, 4, 1, 2, 3, 4,
    1, 2, 3, 7, 1, 2, 3, 4, 1, 2, 3, 4,
    1, 2, 3, 4, 1, 2, 3, 6, 1, 2, 3, 4, 1, 2, 3, 4, 1, 2, 3, 4,
    1, 2, 3, 7, 1, 2, 3, 4, 1, 2, 3, 4,
    1, 2, 3, 4, 1, 2, 3, 5, 1, 2, 3, 4, 1, 2, 3, 4, 1, 2, 3, 4,
    1, 2, 3, 7, 1, 2, 3, 4, 1, 2, 3, 4,
    1, 2, 3, 4, 1, 2, 3, 5, 1, 2, 3, 4, 1, 2, 3, 4, 1, 2, 3, 4,
    1, 2, 3, 7, 1, 2, 3, 4, 1, 2, 3, 4,
    1, 2, 3, 4, 1, 2, 3, 5, 1, 2, 3, 4, 1, 2, 3, 4, 1, 2, 3, 4,
    1, 2, 3, 7, 1, 2, 3, 4, 1, 2, 3, 4,
    1, 2, 3, 4, 1, 2, 3, 5, 1, 2, 3, 4, 1, 2, 3, 4, 1, 2, 3, 4,
    1, 2, 3, 7, 1, 2, 3, 4, 1, 2, 3, 4,
    1, 2, 3, 4, 1, 2, 3, 5, 1, 2, 3, 4, 1, 2, 3, 4, 1, 2, 3, 4,
    1, 2, 3, 7, 1, 2, 3, 4, 1, 2, 3, 4,
    1, 2, 3, 4, 1, 2, 3, 5, 1, 2, 3, 4, 1, 2, 3, 4, 1, 2, 3, 4,
    1, 2, 3, 7, 1, 2, 3, 4, 1, 2, 3, 4,
    1, 2, 3, 4, 1, 2, 3, 5, 1, 2, 3, 4, 1, 2, 3, 4, 1, 2, 3, 4],
    [1, 2, 3, 7, 1, 2, 3, 4, 1, 2, 3, 4,
    1, 2, 3, 4, 1, 2, 3, 5, 1, 2, 3, 4, 1, 2, 3, 4, 1, 2, 3, 4,
    1, 2, 3, 7, 1, 2, 3, 4, 1, 2, 3, 4,
    1, 2, 3, 4, 1, 2, 3, 5, 1, 2, 3, 4, 1, 2, 3, 4, 1, 2, 3, 4,
    1, 2, 3, 7, 1, 2, 3, 4, 1, 2, 3, 4,
    1, 2, 3, 4, 1, 2, 3, 5, 1, 2, 3, 4, 1, 2, 3, 4, 1, 2, 3, 4,
    1, 2, 3, 7, 1, 2, 3, 4, 1, 2, 3, 4,
    1, 2, 3, 4, 1, 2, 3, 5, 1, 2, 3, 4, 1, 2, 3, 4, 1, 2, 3, 4,
    1, 2, 3, 7, 1, 2, 3, 4, 1, 2, 3, 4,
    1, 2, 3, 4, 1, 2, 3, 5, 1, 2, 3, 4, 1, 2, 3, 4, 1, 2, 3, 4,
    1, 2, 3, 7, 1, 2, 3, 4, 1, 2, 3, 4,
    1, 2, 3, 4, 1, 2, 3, 5, 1, 2, 3, 4, 1, 2, 3, 4, 1, 2, 3, 4,
    1, 2, 3, 7, 1, 2, 3, 4, 1, 2, 3, 4,
    1, 2, 3, 4, 1, 2, 3, 5, 1, 2, 3, 4, 1, 2, 3, 4, 1, 2, 3, 4,
    1, 2, 3, 7, 1, 2, 3, 4, 1, 2, 3, 4,
    1, 2, 3, 4, 1, 2, 3, 5, 1, 2, 3, 4, 1, 2, 3, 4, 1, 2, 3, 4,
    1, 2, 3, 7, 1, 2, 3, 4, 1, 2, 3, 4,
    1, 2, 3, 4, 1, 2, 3, 5, 1, 2, 3, 4, 1, 2, 3, 4, 1, 2, 3, 4,
    1, 2, 3, 7, 1, 2, 3, 4, 1, 2, 3, 4,
    1, 2, 3, 4, 1, 2, 3, 5, 1, 2, 3, 4, 1, 2, 3, 4, 1, 2, 3, 4,
    1, 2, 3, 7, 1, 2, 3, 4, 1, 2, 3, 4,
    1, 2, 3, 4, 1, 2, 3, 5, 1, 2, 3, 4, 1, 2, 3, 4, 1, 2, 3, 4,
    1, 2, 3, 7, 1, 2, 3, 4, 1, 2, 3, 4,
    1, 2, 3, 4, 1, 2, 3, 5, 1, 2, 3, 4, 1, 2, 3, 4, 1, 2, 3, 4,
    1, 2, 3, 7, 1, 2, 3, 4, 1, 2, 3, 4,
    1, 2, 3, 4, 1, 2, 3, 5, 1, 2, 3, 4, 1, 2, 3, 4, 1, 2, 3, 4,
    1, 2, 3, 7, 1, 2, 3, 4, 1, 2, 3, 4,
    1, 2, 3, 4, 1, 2, 3, 5, 1, 2, 3, 4, 1, 2, 3, 4, 1, 2, 3, 4,
    1, 2, 3, 7, 1, 2, 3, 4, 1, 2, 3, 4,
    1, 2, 3, 4, 1, 2, 3, 5, 1, 2, 3, 4, 1, 2, 3, 4, 1, 2, 3, 4,
    1, 2, 3, 7, 1, 2, 3, 4, 1, 2, 3, 4,
    1, 2, 3, 4, 1, 2, 3, 5, 1, 2, 3, 4, 1, 2, 3, 4, 1, 2, 3, 4,
    1, 2, 3, 7, 1, 2, 3, 4, 1, 2, 3, 4,
    1, 2, 3, 4, 1, 2, 3, 5, 1, 2, 3, 4, 1, 2, 3, 4, 1, 2, 3, 4,
    1, 2, 3, 7, 1, 2, 3, 4, 1, 2, 3, 4,
    1, 2, 3, 4, 1, 2, 3, 5, 1, 2, 3, 4, 1, 2, 3, 4, 1, 2, 3, 4,
    1, 2, 3, 7, 1, 2, 3, 4, 1, 2, 3, 4,
    1, 2, 3, 4, 1, 2, 3, 5, 1, 2, 3, 4, 1, 2, 3, 4, 1, 2, 3, 4,
    1, 2, 3, 7, 1, 2, 3, 4, 1, 2, 3, 4,
    1, 2, 3, 4, 1, 2, 3, 5, 1, 2, 3, 4, 1, 2, 3, 4, 1, 2, 3, 4,
    1, 2, 3, 7, 1, 2, 3, 4, 1, 2, 3, 4,
    1, 2, 3, 4, 1, 2, 3, 5, 1, 2, 3, 4, 1, 2, 3, 4, 1, 2, 3, 4,
    1, 2, 3, 7, 1, 2, 3, 4, 1, 2, 3, 4,
    1, 2, 3, 4, 1, 2, 3, 5, 1, 2, 3, 4, 1, 2, 3, 4, 1, 2, 3, 4,
    1, 2, 3, 7, 1, 2, 3, 4, 1, 2, 3, 4,
    1, 2, 3, 4, 1, 2, 3, 5, 1, 2, 3, 4, 1, 2, 3, 4, 1, 2, 3, 4,
    1, 2, 3, 7, 1, 2, 3, 4, 1, 2, 3, 4,
    1, 2, 3, 4, 1, 2, 3, 5, 1, 2, 3, 4, 1, 2, 3, 4, 1, 2, 3, 4,
    1, 2, 3, 7, 1, 2, 3, 4, 1, 2, 3, 4,
    1, 2, 3, 4, 1, 2, 3, 5, 1, 2, 3, 4, 1, 2, 3, 4, 1, 2, 3, 4,
    1, 2, 3, 7, 1, 2, 3, 4, 1, 2, 3, 4,
    1, 2, 3, 4, 1, 2, 3, 5, 1, 2, 3, 4, 1, 2, 3, 4, 1, 2, 3, 4,
    1, 2, 3, 7, 1, 2, 3, 4, 1, 2, 3, 4,
    1, 2, 3, 4, 1, 2, 3, 5, 1, 2, 3, 4, 1, 2, 3, 4, 1, 2, 3, 4,
    1, 2, 3, 7, 1, 2, 3, 4, 1, 2, 3, 4,
    1, 2, 3, 4, 1, 2, 3, 5, 1, 2, 3, 4, 1, 2, 3, 4, 1, 2, 3, 4,
    1, 2, 3, 7, 1, 2, 3, 4, 1, 2, 3, 4,
    1, 2, 3, 4, 1, 2, 3, 5, 1, 2, 3, 4, 1, 2, 3, 4, 1, 2, 3, 4,
    1, 2, 3, 7, 1, 2, 3, 4, 1, 2, 3, 4,
    1, 2, 3, 4, 1, 2, 3, 5, 1, 2, 3, 4, 1, 2, 3, 4, 1, 2, 3, 4,
    1, 2, 3, 7, 1, 2, 3, 4, 1, 2, 3, 4,
    1, 2, 3, 4, 1, 2, 3, 5, 1, 2, 3, 4, 1, 2, 3, 4, 1, 2, 3, 4,
    1, 2, 3, 7, 1, 2, 3, 7, 1, 2, 3, 4,
    1, 2, 3, 4, 1, 2, 3, 5, 1, 2, 3, 4, 1, 2, 3, 4, 1, 2, 3, 4]]> : tensor<4x1024xi32>
  %out_values_empty = tensor.empty() : tensor<4x40xi32>
  %out_indices_empty = tensor.empty() : tensor<4x40xi32>
  %neg_1 = arith.constant 0xFFFFFFFF : i32
  %c0 = arith.constant 0 : i32
  %out_values = linalg.fill ins(%neg_1 : i32) outs(%out_values_empty : tensor<4x40xi32>) -> tensor<4x40xi32>
  %out_indices = linalg.fill ins(%c0 : i32) outs(%out_indices_empty : tensor<4x40xi32>) -> tensor<4x40xi32>
  %0:2 = iree_linalg_ext.topk
        dimension(1)
        ins(%input_values: tensor<4x1024xi32>)
        outs(%out_values, %out_indices : tensor<4x40xi32>, tensor<4x40xi32>) {
        ^bb0(%arg0 : i32, %arg1 : i32):
         %0 = arith.cmpi eq, %arg0, %arg1 : i32
         iree_linalg_ext.yield %0 : i1
        } -> tensor<4x40xi32>, tensor<4x40xi32>

  check.expect_eq_const(
      %0#0,
      dense<[[18,7,7,7,7,7,7,7,7,7,7,7,7,7,7,7,7,7,7,7,7,7,7,7,7,7,7,7,7,7,7,7,7,5,5,5,5,5,5,5],
             [11,7,7,7,7,7,7,7,7,7,7,7,7,7,7,7,7,7,7,7,7,7,7,7,7,7,7,7,7,7,7,7,7,5,5,5,5,5,5,5],
             [7,7,7,7,7,7,7,7,7,7,7,7,7,7,7,7,7,7,7,7,7,7,7,7,7,7,7,7,7,7,7,7,6,5,5,5,5,5,5,5],
             [7,7,7,7,7,7,7,7,7,7,7,7,7,7,7,7,7,7,7,7,7,7,7,7,7,7,7,7,7,7,7,7,7,5,5,5,5,5,5,5]]>:tensor<4x40xi32>
  ) : tensor<4x40xi32>

  check.expect_eq_const(
      %0#1,
      dense<[[988,3,35,67,99,131,163,195,227,259,291,323,355,387,419,451,483,515,547,579,611,643,675,707,739,771,803,835,867,899,931,963,995,19,51,83,115,147,179,211],
        [775,3,35,67,99,131,163,195,227,259,291,323,355,387,419,451,483,515,547,579,611,643,675,707,739,771,803,835,867,899,931,963,995,19,51,83,115,147,179,211],
        [3,35,67,99,131,163,195,227,259,291,323,355,387,419,451,483,515,547,579,611,643,675,707,739,771,803,835,867,899,931,963,995,787,19,51,83,115,147,179,211],
        [3,35,67,99,131,163,195,227,259,291,323,355,387,419,451,483,515,547,579,611,643,675,707,739,771,803,835,867,899,931,963,995,999,19,51,83,115,147,179,211]]> : tensor<4x40xi32>
  ) : tensor<4x40xi32>

  return
}

func.func @vector_call_topk_1x256128() {
 %input_values = util.unfoldable_constant dense<[[… > : tensor<1x256128xf32>
 %out_values_empty = tensor.empty() : tensor<1x40xf32>
 %out_indices_empty = tensor.empty() : tensor<1x40xi32>
 %neg_inf = arith.constant 0xFF800000 : f32
 %c0 = arith.constant 0 : i32
 %out_values = linalg.fill ins(%neg_inf : f32) outs(%out_values_empty : tensor<1x40xf32>) -> tensor<1x40xf32>
 %out_indices = linalg.fill ins(%c0 : i32) outs(%out_indices_empty : tensor<1x40xi32>) -> tensor<1x40xi32>
 %0:2 = iree_linalg_ext.topk
        dimension(1)
        ins(%input_values: tensor<1x256128xf32>)
        outs(%out_values, %out_indices : tensor<1x40xf32>, tensor<1x40xi32>) {
        ^bb0(%arg0 : f32, %arg1 : f32):
         %0 = arith.cmpf ogt, %arg0, %arg1 : f32
         iree_linalg_ext.yield %0 : i1
        } -> tensor<1x40xf32>, tensor<1x40xi32>
 check.expect_almost_eq_const(
     %0#0,
     dense<[[… > : tensor<1x40xf32>
 ) : tensor<1x40xf32>

  check.expect_eq_const(
      %0#1,
      dense<[[255899, 255963, 256027, 256091, 3, 7, 11, 15, 19, 23, 27, 31, 35, 39, 43, 47, 51, 55, 59, 63, 67, 71, 75, 79, 83, 87, 91, 95, 99, 103, 107, 111, 115, 119, 123, 127, 131, 135, 139, 143]]> : tensor<1x40xi32>
  ) : tensor<1x40xi32>
 return
}